Computation Details: 
	Device Used: (cuda)  Tesla T4

Packages Used Versions: 
	Pytorch Version: 1.5.0+cu101
Training images already exist. No need to generate them again.
Number of files in the train set: 5000 
Number of files in the validation set: 127 
Number of files in the test set: 127
Visualized data has been saved to Visualized_data.png
U_Net(
  (Maxpool): MaxPool2d(kernel_size=2, stride=2, padding=0, dilation=1, ceil_mode=False)
  (Conv1): conv_block(
    (conv): Sequential(
      (0): Conv2d(1, 16, kernel_size=(3, 3), stride=(1, 1), padding=(1, 1))
      (1): ReLU(inplace=True)
      (2): Conv2d(16, 16, kernel_size=(3, 3), stride=(1, 1), padding=(1, 1))
      (3): ReLU(inplace=True)
    )
  )
  (Conv2): conv_block(
    (conv): Sequential(
      (0): Conv2d(16, 32, kernel_size=(3, 3), stride=(1, 1), padding=(1, 1))
      (1): ReLU(inplace=True)
      (2): Conv2d(32, 32, kernel_size=(3, 3), stride=(1, 1), padding=(1, 1))
      (3): ReLU(inplace=True)
    )
  )
  (Conv3): conv_block(
    (conv): Sequential(
      (0): Conv2d(32, 64, kernel_size=(3, 3), stride=(1, 1), padding=(1, 1))
      (1): ReLU(inplace=True)
      (2): Conv2d(64, 64, kernel_size=(3, 3), stride=(1, 1), padding=(1, 1))
      (3): ReLU(inplace=True)
    )
  )
  (Conv4): conv_block(
    (conv): Sequential(
      (0): Conv2d(64, 128, kernel_size=(3, 3), stride=(1, 1), padding=(1, 1))
      (1): ReLU(inplace=True)
      (2): Conv2d(128, 128, kernel_size=(3, 3), stride=(1, 1), padding=(1, 1))
      (3): ReLU(inplace=True)
    )
  )
  (Conv5): conv_block(
    (conv): Sequential(
      (0): Conv2d(128, 256, kernel_size=(3, 3), stride=(1, 1), padding=(1, 1))
      (1): ReLU(inplace=True)
      (2): Conv2d(256, 256, kernel_size=(3, 3), stride=(1, 1), padding=(1, 1))
      (3): ReLU(inplace=True)
    )
  )
  (Up5): up_conv(
    (up): Sequential(
      (0): Upsample(scale_factor=2.0, mode=nearest)
      (1): Conv2d(256, 128, kernel_size=(3, 3), stride=(1, 1), padding=(1, 1))
      (2): ReLU(inplace=True)
    )
  )
  (Up_conv5): conv_block(
    (conv): Sequential(
      (0): Conv2d(256, 128, kernel_size=(3, 3), stride=(1, 1), padding=(1, 1))
      (1): ReLU(inplace=True)
      (2): Conv2d(128, 128, kernel_size=(3, 3), stride=(1, 1), padding=(1, 1))
      (3): ReLU(inplace=True)
    )
  )
  (Up4): up_conv(
    (up): Sequential(
      (0): Upsample(scale_factor=2.0, mode=nearest)
      (1): Conv2d(128, 64, kernel_size=(3, 3), stride=(1, 1), padding=(1, 1))
      (2): ReLU(inplace=True)
    )
  )
  (Up_conv4): conv_block(
    (conv): Sequential(
      (0): Conv2d(128, 64, kernel_size=(3, 3), stride=(1, 1), padding=(1, 1))
      (1): ReLU(inplace=True)
      (2): Conv2d(64, 64, kernel_size=(3, 3), stride=(1, 1), padding=(1, 1))
      (3): ReLU(inplace=True)
    )
  )
  (Up3): up_conv(
    (up): Sequential(
      (0): Upsample(scale_factor=2.0, mode=nearest)
      (1): Conv2d(64, 32, kernel_size=(3, 3), stride=(1, 1), padding=(1, 1))
      (2): ReLU(inplace=True)
    )
  )
  (Up_conv3): conv_block(
    (conv): Sequential(
      (0): Conv2d(64, 32, kernel_size=(3, 3), stride=(1, 1), padding=(1, 1))
      (1): ReLU(inplace=True)
      (2): Conv2d(32, 32, kernel_size=(3, 3), stride=(1, 1), padding=(1, 1))
      (3): ReLU(inplace=True)
    )
  )
  (Up2): up_conv(
    (up): Sequential(
      (0): Upsample(scale_factor=2.0, mode=nearest)
      (1): Conv2d(32, 16, kernel_size=(3, 3), stride=(1, 1), padding=(1, 1))
      (2): ReLU(inplace=True)
    )
  )
  (Up_conv2): conv_block(
    (conv): Sequential(
      (0): Conv2d(32, 16, kernel_size=(3, 3), stride=(1, 1), padding=(1, 1))
      (1): ReLU(inplace=True)
      (2): Conv2d(16, 16, kernel_size=(3, 3), stride=(1, 1), padding=(1, 1))
      (3): ReLU(inplace=True)
    )
  )
  (Conv_1x1): Conv2d(16, 1, kernel_size=(1, 1), stride=(1, 1))
)
Starting Training Process 
    Batch: 100,	Batch Loss: 0.0483393
    Batch: 200,	Batch Loss: 0.0127908
    Batch: 300,	Batch Loss: 0.0100059
    Batch: 400,	Batch Loss: 0.0091755
    Batch: 500,	Batch Loss: 0.0077489
    Batch: 600,	Batch Loss: 0.0065456
Epoch:   1,  train Loss: 0.01540,  validation Loss: 0.06405,  validation score: 0.36280,  current lr:  0.0001 , Time: 68.15 s	Best model saved at score: 0.36280
…
